model.npz (npz, 876526 bytes, 6 tensors)

W1 f8 [128, 784]
0	0x3fa34bc2817f6bd9	0.03768737631590797
1	0xbf9a08628f6d72cd	-0.025422611240503202
2	0x3fbc187bfc9f7d88	0.10974860112718521
3	0x3fb338fa3b8665bc	0.07508815720793555
4	0xbf9bebb6ddd7496c	-0.02726636628160277
5	0xbf5b4e01a985c528	-0.001666547415961903
6	0x3f93fefd77844ffd	0.01952739755604681
7	0x3fb598c4a6e72524	0.08436230730798805
8	0xbfa10b6a7bf5673a	-0.0332902218166979
9	0x3f823e4151fd0605	0.008907804789148885
10	0xbf898aa09b081513	-0.012471441966236207
11	0xbfabe9fabf81a75a	-0.05451949680066433
12	0xbf9cf534d1976b33	-0.028279137890289973
13	0x3fa483a219a9c7a6	0.04006678164741055
14	0xbfb4d7ba0a964032	-0.08141672857732443
15	0x3f5b2ba976f34cda	0.0016583590439054803
16	0xbf80815885f431c0	-0.008059207523296474
17	0x3fa5d972f15d0000	0.04267462917641751
18	0x3f83d9c28a6c29fa	0.009692687844581539
19	0x3f34a4d25d0e27c0	0.0003149999220616283
20	0xbfb243cf073b969d	-0.07134717871266578
21	0xbfa743391aed8fe1	-0.04543474630079892
22	0xbf74c3b789384bbc	-0.005069462716636271
23	0x3fa03239e6d893af	0.031633195332950385
24	0x3fb29d1168263a3b	0.0727091674109283
25	0xbfb4e624a9cd5b28	-0.08163670678673596
26	0x3fb1570f2bf6024d	0.06773466895357068
27	0x3f91dc7eee172f9d	0.017442687303443106
28	0xbfb7d72202443da9	-0.09312641673408585
29	0x3faf7f4fb6fb754b	0.06151818379087589
30	0x3fa3e9a2bcef0988	0.03889187389679011
31	0x3f7b20050c625195	0.006622333259788245
32	0x3faf3642d0f15ea9	0.06096085358211429
33	0x3fbd097a6ca74524	0.11342587616606586
34	0xbf998f44b34259ee	-0.024960587922203396
35	0x3f50db96e9135149	0.001028916715133015
36	0xbfa248edae0ae042	-0.03571264981786772
37	0x3facd402896b9238	0.05630500724308657
38	0xbf93c10c8504d929	-0.019291110628921224
39	0xbf72ae3ac687e782	-0.00456068953689648
40	0x3f90d9425dc90c25	0.01645377824230478
41	0x3f14331d03b37643	7.705559339706799e-05
42	0x3f8fd4bcb81ee215	0.015542482727924281
43	0xbf7b53e9d46f8f81	-0.0066718229272487726
44	0x3fb6015ffcb1298b	0.08595848006476652
45	0x3fa3eb3cd8dd7541	0.038904096100603976
46	0x3fa2bac709373841	0.03658124911781658
47	0x3f9c3e6a2c5f6d00	0.02758184333638969
48	0x3fb4c8a0b88d246e	0.08118633752487067
49	0xbfacb230de133f4b	-0.056046988590991186
50	0xbf96dcdbcba89c0b	-0.02232688360723149
51	0xbf800ec7ed2d0c13	-0.00784069244912725
52	0x3f7aa4524611c10a	0.006504365331338366
53	0xbfba7506a034c4a1	-0.10334817324907643
54	0xbf83b167085ea189	-0.009615712111398238
55	0xbf96b16198855caf	-0.022161030706538905
56	0xbf90f3558beb34eb	-0.016553246178593033
57	0xbfabaa0f02cfb9be	-0.054031819432441605
58	0x3f9ec3fe7c8af9e5	0.030044533111089584
59	0x3f989fe994c71ece	0.024047517495801078
60	0xbfbe393f7bdbaefe	-0.11806103490715356
61	0x3f92cf3dff4bf9e5	0.01836869116504571
62	0xbfab738d3aff3c56	-0.053615964366706834
63	0x3f89426192b552c4	0.012333643235856846
64	0x3fac9b74ba62db98	0.0558735349199459
65	0x3fb740b827da6825	0.09083128903367362
66	0x3fae36f847475d67	0.059013136578580476
67	0xbfb03da8d6358b13	-0.06344084958758982
68	0x3f954a18693864c3	0.02079046385015172
69	0xbfa52fa7677aa37e	-0.04137919557735524
70	0x3f76b38aa88a58ae	0.0055423179952837475
71	0xbfa5cbd008c0ae97	-0.04257059199184459
72	0x3fa34356e1209d16	0.03762313364159746
73	0x3f9042ae60ded6fb	0.015879368460182324
74	0xbfb75f60c3e6f17c	-0.09129910261885316
75	0x3fc1c5da6c72fcb2	0.1388505010163264
76	0x3fb0f2be993d0efc	0.06620398751425322
77	0xbf83fc789f2440e9	-0.009758894306770976
78	0xbfb0b49ffbcf186a	-0.06525611779861298
79	0xbfaba68a52145639	-0.0540049767679815
80	0xbf75c7c8e19c22fc	-0.005317482655080804
81	0xbfb2ded38ae0f259	-0.07371256008713924
82	0xbf8ca8f2ff7ca25b	-0.01399412004646299
83	0xbf9f50d2a1a5be97	-0.03058175193422005
84	0xbfb79876679c0d2a	-0.09217014340906773
85	0xbfa27aef8b9e3e2a	-0.0360941751415534
86	0x3fc271d087fd5b54	0.1440983451854786
87	0xbf2888286e5f0c14	-0.00018716329139864595
88	0xbfa30f2807724422	-0.03722500887773374
89	0xbfa0ff7eaeef2488	-0.03319927106310511
90	0xbf777512f615f38a	-0.005726884906263838
91	0xbf95eef6832dc6cf	-0.02141938377048441
92	0x3f7f37ad620d967f	0.007621457364484051
93	0x3f9ed0710bd50155	0.03009201655118095
94	0x3f8d5780634667f5	0.014327052144654554
95	0xbf96c493d89fb8f7	-0.02223425874392945
96	0x3f85fbdc50767942	0.010734292226342593
97	0xbfb62c094c071d7b	-0.0866094408621531
98	0x3fb033d28d3940eb	0.06329074809878292
99	0x3fbdcdb2ac13baca	0.11641995144939724
100	0x3fa3d5c9f294f3ce	0.03874045454219975
101	0xbf97c65ad9362215	-0.023217601306472064
102	0x3f8f9f7bdaba663b	0.0154409099698568
103	0xbfabf37d21cccf8d	-0.054592047096234976
104	0xbfa1ad1bc5dc73c0	-0.03452383795067915
105	0x3f87f814f995f8a2	0.011703647486452976
106	0x3fa2d0b228c54abe	0.03674847362221588
107	0x3f930821d61eed12	0.018585709279915603
108	0x3f9641f8ec68fce7	0.02173603957112116
109	0xbfb713f2f9316fbe	-0.09014814933601564
110	0xbfa12d0e5f402c13	-0.03354687607505737
111	0x3f74e5bf0cb39574	0.0051019156337351775
112	0x3fb189823b7f16d2	0.06850446655797818
113	0xbf8daf76391cf8b2	-0.014494823091464635
114	0xbfa3da9a58074cba	-0.03877718281332805
115	0x3faa3f01ce24ce50	0.05126195565608482
116	0x3fb4958a2f477e8d	0.08040679601935548
117	0xbfa7c7dff3595d8f	-0.04644679875917312
118	0xbfbb5f68a2ce8037	-0.10692457175036983
119	0xbfa9a49bf55ece81	-0.050083993627962016
120	0xbfb78442f82450da	-0.09186190183783385
121	0xbf8f497429f7e7c1	-0.015276820688985173
122	0xbfba4023c6782a0a	-0.1025411948723233
123	0xbfb316cdf960f7c7	-0.074566720374576
124	0xbfa53ccfa7eec3de	-0.0414795773025458
125	0xbfa40a0ffe3bb0ab	-0.03913927057678398
126	0x3fb0201e06962e4d	0.06299007092291582
127	0xbf90a1ced493f323	-0.01624224827263555
128	0xbf9eb0f078ca1fa0	-0.029971845028313404
129	0x3fa8ba8496a56485	0.04829801882687782
130	0x3fadd976e39f1f67	0.05829974678596166
131	0xbfa00f301b85d8bc	-0.031365874633523444
132	0xbfb31937b890298b	-0.0746035409539784
133	0xbfa0bc1b141f3773	-0.03268513317708157
134	0x3fa72f16ae84a18d	0.0452811325106409
135	0x3fbce0687462b47f	0.11279919473118304
136	0x3fb5074b986bdc2b	0.08214256736015162
137	0x3fb1d9086c62d166	0.06971790929930463
138	0x3f82f7212292a9de	0.009260424487668336
139	0x3fb0060080453547	0.0625915825996418
140	0xbfb23bd38f75dbc1	-0.07122537853670875
141	0x3fb25d5610c3fd32	0.07173669728580448
142	0xbfaf811849a2c98f	-0.06153179072261416
143	0x3f8ff1bf5699e786	0.015597815351828147
144	0x3f94cfcbd0df7a31	0.020323929427713053
145	0xbf9072422e07bd57	-0.01606086164423223
146	0x3fa1c97bacf60494	0.03474031912174627
147	0xbfb375b1621edc5c	-0.07601460118790854
148	0xbfb17ab2719adf76	-0.06827845834311383
149	0xbfaef07b0c53cb3d	-0.0604284718082426
150	0xbfa9e0f8bcf3ae7f	-0.050544522347846225
151	0xbfafa4fafd607c10	-0.06180557578067447
152	0xbfb1013234318aca	-0.06642450117355306
153	0x3f900feae0e6efdb	0.01568572042172876
154	0x3f7318618c1c78d4	0.004661923450639278
155	0xbfa0e0159dc329b2	-0.03295962858972547
156	0xbf977e83b2bf7f94	-0.02294355181209047
157	0x3fa1d6208509be81	0.03483678459167284
158	0xbf868317c8eb36f8	-0.010992227381759076
159	0x3fa99a1ce68a1443	0.0500039130611545
160	0x3fa597eab49b07f9	0.0421746583429154
161	0x3fbd8e51d24e7132	0.11545287498887971
162	0x3fb68f6996f941a7	0.08812580047493289
163	0xbfa3fde55c95c74c	-0.03904644732655402
164	0xbf8a56a1b7722f20	-0.01286054936488018
165	0xbfa5d1ed11e6e9c7	-0.04261723369150477
166	0xbf906040c6fb1bb3	-0.01599217619402866
167	0xbfad7ccb339c8e2e	-0.057592725801694264
168	0x3fc0add73b4922a6	0.1303051986199268
169	0xbf8fc486fddb86f1	-0.015511564848057687
170	0x3f897c5bf6daf8ca	0.012444227667739578
171	0xbfad31f169c2ba0c	-0.05702166000388695
172	0xbfa2b7b76817b7db	-0.03655789514219495
173	0xbfae5d1007dfd853	-0.059303761445264634
174	0xbf74559f98c5d9ef	-0.004964469361189646
175	0xbfa808bebfaf82d3	-0.04694171991264331
176	0xbfbdbf8aadc05f4d	-0.11620394460657942
177	0xbfb76396b7767d80	-0.09136335352967784
178	0xbfb8df5bee87fd96	-0.09715818952098795
179	0xbf757107af8a4cbd	-0.005234746954232592
180	0xbf9336bff1798076	-0.018763541329804366
181	0xbfafb53351cc29a1	-0.0619293248510815
182	0x3fc4ec7c91f5f946	0.16346699835771455
183	0x3f62bae2007db709	0.002286378297802542
184	0x3fb4463a53221de0	0.07919659165974435
185	0x3fb581984614afb7	0.08400871001202757
186	0x3fb99aa91f2980b6	0.10001618395608855
187	0x3f9e96c3e2f87cfa	0.02987199852770759
188	0xbf890574e0719696	-0.012217438792684814
189	0x3f94ec18ef3ca3b3	0.020431890107974925
190	0xbf9ad2785199343e	-0.02619350431477962
191	0x3fbba05b994cdc90	0.10791561596566823
192	0x3f994f166e963f7c	0.024715757846535777
193	0x3fa16cf6cf4242f5	0.034034455108786256
194	0xbfb50aad2860e020	-0.08219415889550463
195	0x3f8bd4fa5063aac4	0.01358981664494275
196	0x3f6029b118d8e4da	0.0019730051924652216
197	0xbf91d3c07b131ada	-0.017409331809882335
198	0xbf935434aa1379ef	-0.018875906830425334
199	0xbf5eecec13821161	-0.0018875413352655512
200	0xbfb6ed6633018c21	-0.08955992455734975
201	0x3f94d6e24d91a337	0.020350967392377597
202	0xbfa7851a7d43124c	-0.04593737391545413
203	0xbfabab80b0888562	-0.05404283671328859
204	0xbfa25451c6797bf0	-0.03579955623421671
205	0xbfb8773e6ca82c7b	-0.09556951668507623
206	0xbfa97b1b19132fb4	-0.0497673481091562
207	0xbf90fa10998dc76a	-0.016578921672994275
208	0x3fbdd2abcc3b8ae4	0.11649583564898652
209	0x3faf04dc2c34661d	0.060583954235152705
210	0x3fc3bd4770b62b6b	0.15421383861061186
211	0x3fc0061b74a4a893	0.12518637843578925
212	0xbfa3b182616f4a99	-0.038463663476837336
213	0x3fb07fbc66d9080f	0.0644490958302699
214	0x3fc1b47c033e21f9	0.1383204475244069
215	0xbf9b704e39a03cb2	-0.02679559923859349
216	0x3fb695ca2df1a5fd	0.08822311040571403
217	0xbfa5f2c86b7b9d29	-0.04286791145369257
218	0x3fbee0f454238552	0.12062003187340523
219	0xbf802e74539fafa7	-0.007901104738230759
220	0xbf90a2b360161d79	-0.016245653857848794
221	0xbfacc708eac33a7a	-0.05620601526026277
222	0xbfab945d12af9eca	-0.0538662991819457
223	0x3fa399eec43b2bd4	0.03828378816032055
224	0x3fa2bad2b3998e5a	0.036581596778685735
225	0x3f8af462630122bb	0.013161438604713074
226	0x3fa072d3c72458e1	0.03212606244976413
227	0xbfb509c86501dd5e	-0.08218052354810854
228	0xbfa41469d239babb	-0.03921824160794559
229	0xbf8d00d7ca1812d5	-0.014161764006538938
230	0xbfbf02758b312f1a	-0.12113127372975577
231	0xbf96376d39aedf77	-0.021695810933777673
232	0xbfc139d5648e726c	-0.13457744035703756
233	0xbfa4760fafb7c2b2	-0.03996323604576925
234	0xbfa08decd4c07bf3	-0.03233280274456964
235	0x3fb44bfd6b7a9de3	0.07928451417921382
236	0x3fc51ce491d6cb09	0.16494423981711062
237	0x3fc0467a0939db78	0.1271507782982686
238	0x3fc0fa9d4ea5ed6e	0.13264814701311017
239	0x3fbd2149f57488cc	0.11378919832762618
240	0x3fbdac092eca0ae4	0.11590630905451921
241	0xbf7e1434f9eecdee	-0.007343489588424996
242	0x3fa030445460ae94	0.031618247318275255
243	0x3f944bc887c70790	0.019820340430448946
244	0x3fb4be8a04b215a4	0.08103239645614352
245	0x3fa1acfbdd09fb89	0.03452288697461998
246	0xbfb086d252d17ac1	-0.06455721399241111
247	0xbf96992b5dfe64de	-0.022068669902726927
248	0xbf80ec560b708726	-0.008263275360210164
249	0x3fa44349bc37a3d7	0.0395758669145107
250	0x3f544ea15be5b0c2	0.0012394500514246042
251	0x3f89eb651a2ca12d	0.012656011449124616
252	0xbf77244e0522b5b2	-0.005649857297766502
253	0xbfbf5377a10529bc	-0.12236735993534514
254	0xbfb28cd220abcad1	-0.07246125505097757
255	0xbfa9419a082bfb03	-0.04932862615350155

W2 f8 [64, 128]
0	0xbfbad5426e89f2f5	-0.10481658171370241
1	0xbfbf5f18b8c052ca	-0.12254480848816765
2	0x3fb930c431bb5657	0.09840036596445977
3	0xbfc8fe7da6efd529	-0.1952664437409706
4	0x3fd1279fe25efde4	0.268043490472307
5	0x3fd386d3487c2980	0.3051040847646149
6	0x3f6e6fb67ed00f64	0.0037153782236617906
7	0x3fbe5597b8d25912	0.11849354040382234
8	0xbfba0264a79338cc	-0.10159901705921753
9	0xbfbf396dec5fa8b8	-0.12197005291787633
10	0xbf95149f812ac4df	-0.02058648324845513
11	0xbfd48691c9a7ba47	-0.32071346943749685
12	0x3fc8551c089c3d68	0.19009733601022138
13	0xbfbe8027d6361c39	-0.11914299945611696
14	0xbfb0a033710e39f2	-0.06494447240968507
15	0xbf8e54dd48c5b6e7	-0.014810303481421495
16	0x3fb9a2adbea53fe5	0.10013852981978706
17	0x3fc59e51ba83dfb9	0.1688940201490803
18	0xbfca0a4a333a482f	-0.2034390211234167
19	0xbf6c2008f4d5171e	-0.0034332442216137423
20	0x3fc4ce0d2603405d	0.16253818851555737
21	0xbfb4908050af8496	-0.08032991380561535
22	0xbfb73c55e954873a	-0.09076439806497386
23	0xbfa5ef71c9b0118c	-0.04284244143494495
24	0x3fd0fb14a03a5f54	0.26532474181430143
25	0x3fc2479d74948854	0.1428105181922229
26	0x3fb21eb7d5ef0758	0.07078122113219132
27	0x3faa3170948d9292	0.05115844548598604
28	0x3fce72e66add4601	0.2378814718054372
29	0x3fc0d97f18572698	0.13163746536729515
30	0xbfb8d52e2a271211	-0.09700287369839368
31	0xbfd225cf7540ab8e	-0.28355776262713384
32	0x3fcd24000c6a6818	0.22766113859398796
33	0xbfc3b7eaaa360467	-0.15405019103130543
34	0xbfac3f03306f4222	-0.05516824690096579
35	0xbfc98c4b0ee93266	-0.19959390857765696
36	0x3fc10706a0daa50e	0.13302691320613075
37	0xbfbaacca8f48be2b	-0.1041990852179359
38	0xbf739d29c37ef0ab	-0.0047885543244171975
39	0xbfc9c116094fbfa2	-0.2012050195185085
40	0x3f90583a2319a8a0	0.015961559669826486
41	0x3fa74da0daba3a9a	0.045514132213715544
42	0x3fa37c021a3f5096	0.038055482582110375
43	0x3fa1aee341a0688f	0.034537412415560735
44	0xbfd1f458f4a02134	-0.2805387867852176
45	0xbfa94c0fbd18825d	-0.04940842803285215
46	0xbfb0ca3d2f16310d	-0.0655859222371797
47	0x3fadd090573dc654	0.05823184075314872
48	0x3f4027843208387b	0.0004929919705902863
49	0x3fac1d72b5728601	0.054912171029410935
50	0xbfc71b9beab3b29b	-0.18053006134086477
51	0xbfb0c0949b44d503	-0.06543854513877893
52	0xbfa8dac1d94bbdfd	-0.0485439851526017
53	0x3f88d3c9d224f5d5	0.012122704244229713
54	0x3fd7accc3d6431b1	0.3699217414403178
55	0xbfa6b6e0a80652eb	-0.04436399508555219
56	0x3fca169a025f0be8	0.203814746053552
57	0x3fb2602f1b8ba8bc	0.07178015158175105
58	0xbfa43bbd9bedcfd6	-0.03951828506879422
59	0xbfc4596641c4d3b2	-0.15897825442666896
60	0x3fc21a90d8f2a250	0.1414357241931321
61	0xbfa5233cf820937f	-0.041284470833750746
62	0xbf97437d92f20a1c	-0.022718393415298008
63	0x3fa4afac3fb806a1	0.04040277746027
64	0xbfcd80219ad82e31	-0.23047275601162334
65	0xbf52a82e319094a2	-0.0011387301549430702
66	0x3fb180e764a5af9a	0.06837316710669797
67	0x3f9a64a509eae407	0.025774553995436402
68	0x3fb9bfcc0d669706	0.10058284117857505
69	0xbfb3ee2e3842d205	-0.0778530967098235
70	0xbfd31875bca3b679	-0.29836791440798255
71	0xbf98dea091ea8ac2	-0.02428675547219928
72	0x3fbb2570d3928382	0.10604005017604659
73	0xbfb09f39c67002bc	-0.06492959112803026
74	0x3fa73288d3246d79	0.0453074224226055
75	0xbfbc6bb574a5246f	-0.11101850602894257
76	0x3fa637cc8ceb4e14	0.04339446277813522
77	0xbfbf919ce1a9b3de	-0.1233156252798859
78	0x3fbf86c18f9d8812	0.12314996486887278
79	0x3fcb0339a709af8f	0.2110359254469327
80	0x3f89e015e145804b	0.012634440362205753
81	0xbfc170854b7b35c9	-0.13624635873422467
82	0x3fc1210d74a5f20b	0.13382118411745156
83	0x3f9e8a938243180f	0.02982550127560307
84	0xbfd14ae1fc44b2a8	-0.27019548068600807
85	0xbfb0a80ad96c5e55	-0.06506412323175799
86	0x3fce309e61359a37	0.2358587240843961
87	0x3fc05b5ec421f98b	0.12778839661400485
88	0xbfb82d1d4f5c84b6	-0.09443839252027683
89	0xbfd16ed4e834ea89	-0.2723896281856147
90	0xbfda52b61a1f0d39	-0.4112982993212487
91	0x3fc258799e3daa2c	0.14332504488568654
92	0x3f9d1067c25db205	0.02838289378944305
93	0x3fc690b97bd83ecd	0.17629164263825317
94	0xbfa45f08c45e43aa	-0.039787553759317376
95	0xbfc802b084a96bdc	-0.18758207776667646
96	0x3fd0a66e4e7a4a88	0.26015813506925456
97	0x3fb48e559ac0e63f	0.08029685047304101
98	0x3fc96c3047051256	0.19861415355457507
99	0x3fb1df4b5e1efec7	0.06981345222356615
100	0x3fbdaef558d7a97d	0.11595090312008512
101	0x3fc5a3d53df2664d	0.16906228565931017
102	0xbfa09c7eaa89fe44	-0.032443960492852614
103	0x3f9bbc1a3fe3eafc	0.02708474173503371
104	0xbf5a2baed28d81f9	-0.0015973288775158452
105	0xbf824780ee0cbf7e	-0.008925444855407024
106	0xbfc766d8d07a77e3	-0.18282613925560928
107	0xbf9ed129b9d726f4	-0.03009476849346178
108	0x3fc18caf5975a923	0.1371058642210495
109	0xbfa00c32e3627386	-0.03134306932154289
110	0xbfc12c815fb53e92	-0.13417069600335602
111	0xbfd0b6b6c73239dd	-0.26115197613481006
112	0x3fbc4a6c6be57e2c	0.11051061281386215
113	0x3fd80ce96189c2af	0.3757880642433901
114	0xbfc52ab0e8229282	-0.16536532721251623
115	0xbfbc45b140da67d6	-0.11043842156723768
116	0xbfd1ff9ffa9cccfa	-0.2812271067989084
117	0x3fa004a73dd275d0	0.0312855017630046
118	0xbfb6708d03cfbdcb	-0.08765488951734494
119	0x3fcb1b60469d136e	0.21177295158318138
120	0xbf8e13a508683163	-0.014685906714497937
121	0xbfb83b32d054aef0	-0.09465329729271921
122	0x3f9b3675c16307a1	0.026574935844798756
123	0x3fc1e320da6f01c8	0.13974390664772174
124	0x3fb534bef5921e64	0.08283608909015922
125	0x3fce4b279444771a	0.23666853656407555
126	0x3fb687be203c7061	0.08800876891149435
127	0x3fb301af3e0fcda2	0.07424445405177107
128	0x3fc483d6f6fc9517	0.16027342853446022
129	0x3fcb39638ce50143	0.2126888692819283
130	0x3fd1818a23d1ad45	0.273531470279256
131	0x3fc95b81d6c6bffb	0.19810507762076654
132	0xbf94213e80d57b57	-0.01965806638088038
133	0xbfbfd43e572b9d93	-0.12433232906516016
134	0x3fba9d3289ac4c6b	0.10396114216955403
135	0x3fb1b53625e7ce1e	0.06917131829668974
136	0xbfc3dc4aedfb54fe	-0.1551602994938221
137	0x3fa8e8fd84c6a3b1	0.04865257497596732
138	0x3fa7dda406fd4cef	0.046612859585957504
139	0x3fbb021e783af678	0.10550108371077183
140	0xbfa06fb96224cf7f	-0.032102387648051504
141	0xbfc768c09c15493b	-0.18288428899047368
142	0xbfb6925a7ff4a8d8	-0.08817067741316309
143	0xbfd0ea4854adc562	-0.2642994715634669
144	0xbfd21a58f8f27db9	-0.28285812674763694
145	0x3fcbe0f7accbdf0d	0.21780296265910018
146	0x3fccef28e10ec570	0.2260485743441154
147	0xbf91ac966c127c14	-0.017259931894496885
148	0xbfcbf2bbcc0a7b9b	-0.21834514105736677
149	0x3fc13d123100dfa0	0.13467624085182894
150	0x3fbbdb16ec8ddf90	0.10881179118393747
151	0xbfc713633a4e7b5d	-0.1802791628551529
152	0xbfc30c6ac0ccc319	-0.14881643690161964
153	0x3fcdef43bc097f20	0.2338642757558711
154	0xbfe08f80432dbd20	-0.5175172149737683
155	0x3fcac37ef2c1d1b7	0.209091061147445
156	0x3fb8cc90b0d5386a	0.09687141720971373
157	0xbfd463111b1c3b28	-0.3185465588330083
158	0x3fafbb425039d6b1	0.06197554807014905
159	0xbfc258af0e488021	-0.14333141515180706
160	0xbfc902f2a89ab3db	-0.19540246231681987
161	0x3fd8c9e961a4860a	0.38732370887200374
162	0xbfb8c7cb01b179aa	-0.09679859916057035
163	0xbf9bd7b403b562a7	-0.027190029836989506
164	0x3f73496b73d3eede	0.0047086903916768435
165	0x3fc3198cbbf41cbc	0.14921721627636042
166	0xbfbfafbace0a6783	-0.12377517252244101
167	0xbf7816b8b51d8094	-0.00588104392394952
168	0xbfb4106737b4dfad	-0.07837529287360097
169	0x3fb56de538c68c12	0.08370812069055969
170	0x3fc2b1e812525a81	0.14605427641500415
171	0xbfb500439f89fbbb	-0.08203528065676739
172	0x3fad1364f8092789	0.05678859260349529
173	0xbfc724c7d4f457f9	-0.180809954625772
174	0xbf9da48005e346c6	-0.0289478305429103
175	0xbfacc68d437c3826	-0.05620233010095914
176	0xbfcd208b7cc3ccac	-0.2275556906894044
177	0x3fd37d0fb4b1eafe	0.30450813909526164
178	0xbfc78b659338c370	-0.18394155205308094
179	0xbfa5ec28fbb4835b	-0.042817383504604144
180	0xbfd7079e78aa006e	-0.3598400286064195
181	0x3fcd4d330e0fc437	0.22891843973732914
182	0xbf9dd71a8a684600	-0.029140867898666656
183	0xbfbeeb9fed49b7ff	-0.12078284781611613
184	0x3fc85b28b4dccbb8	0.19028195220161392
185	0x3fc819c943041ae2	0.18828693172709793
186	0xbfb33a37041c2678	-0.07510703897801274
187	0x3fd8b3648c999dd0	0.385949265770674
188	0xbfb5f3ac83a4b169	-0.0857494183916906
189	0xbfc45ca8b37df1f0	-0.1590777279306077
190	0xbfc3bcfe82a61140	-0.15420514468508806
191	0xbf7338e5ef28fe56	-0.004692934208435048
192	0x3f4970aeb1e54321	0.0007763722422088095
193	0xbfc77901534f82ee	-0.18338028495693187
194	0xbfb3e5235efe692a	-0.07771512097534541
195	0x3fbb2d6feba14184	0.10616206648524523
196	0xbfc190393fb6763f	-0.13721385584806176
197	0x3fc0b2559d01ffb2	0.13044233480831974
198	0x3fd568879b61a3a4	0.3345049874683872
199	0xbfae4de12ba4a0ad	-0.0591879239821663
200	0x3fba17cf25354972	0.10192579897310397
201	0xbfc170e8493c200c	-0.13625815940781683
202	0xbfcdcae0b967e01f	-0.2327538399983959
203	0xbfba96804600bd92	-0.1038589640527248
204	0x3fc602e2ba8c1aee	0.17196306332353778
205	0xbfae580c720387f5	-0.05926550761957109
206	0xbfc2b1ebbfdf0a40	-0.14605471485818278
207	0xbfad58d46f1b0d98	-0.05731834274549924
208	0xbfc01a0f1dcd6f94	-0.12579525904845623
209	0xbfa74f09c137b8aa	-0.045524887882366485
210	0xbfc42829ead55d15	-0.15747570005871894
211	0xbfad48df76f1d8b6	-0.0571966011711295
212	0xbfb20ba256ff2417	-0.07049002288762583
213	0xbf998612fcbb15e3	-0.024925514865364106
214	0x3fb26c591b4d901f	0.0719657603891055
215	0x3fc8f44cde0c0377	0.19495545236716413
216	0x3fc0836be559eb82	0.12901066492835517
217	0xbfcd2b2bcdfec301	-0.22787997778279848
218	0x3f8cf23652806baa	0.014133858101606684
219	0xbfe4a5c17c7ca796	-0.6452338630090135
220	0x3f72c615acef4062	0.0045834395122739974
221	0x3fcbea9a2e751372	0.21809699314521996
222	0x3fa37cfa3d73e9f7	0.038062877656518106
223	0xbfc4ac05333b30ad	-0.16149964334033964
224	0x3fccf3f3d281782b	0.22619483736610965
225	0x3fb8baf7da65302b	0.09660290796199493
226	0x3fa97176c05d2c3d	0.049693785650184875
227	0x3fcd6cc5a41dd684	0.22988195909026754
228	0xbfd42f8f4b635baf	-0.3154028164112174
229	0xbfb1ff56caeaeb3b	-0.07030241445583567
230	0x3fc2b0754f3e90b7	0.14601007813792474
231	0x3fc747a159bec94f	0.18187348253338562
232	0x3fddf303f0ac673c	0.4679574823691046
233	0x3fce0f25cc744adc	0.23483726962202567
234	0x3fa0219b6035cd8e	0.031506400579838986
235	0xbfcec572a72c1371	-0.24040063059524244
236	0xbfa669e7908dcf47	-0.043776737590546726
237	0x3fa6daee7b04d878	0.04463906528182887
238	0x3fb873c611f0af40	0.09551656663887531
239	0x3fd4021adfee786d	0.3126284777480411
240	0xbfd30317945b83b1	-0.2970637272647379
241	0x3fdb2b44659db9a8	0.42451581881950995
242	0x3fc8c3246c27c266	0.19345526963253973
243	0xbfc13380abc8d498	-0.13438423526682608
244	0x3fce91cee03af8f5	0.23882471035717115
245	0xbfd081913c0a6d23	-0.2579081617675049
246	0x3f99eef970aab233	0.025325677396425838
247	0x3fc3e93fb4a7a9b9	0.1555556900123756
248	0x3fd261d550c5d00a	0.28722126853904284
249	0x3fb9ec94ea76df7d	0.10126620029666174
250	0x3fc5d18f950902be	0.17045779015645296
251	0x3fb354eaf42d6078	0.07551449262007448
252	0x3fb32ff0d48a35f8	0.07495026768648205
253	0xbfcc0338b96ca434	-0.21884831479954558
254	0x3fb8184449df10c8	0.09412028125285865
255	0xbfa6d15d47a709c1	-0.04456607341446129

W3 f8 [10, 64]
0	0x3fcb2adc172bdd01	0.21224547511494765
1	0xbfbbb871b14e5546	-0.10828314379462708
2	0x3fcb0866b2521422	0.2111938830095435
3	0x3fac16d955d82225	0.054861823777234066
4	0xbfe615f0cdf951d7	-0.6901783011367638
5	0xbf96f31e8ee269bf	-0.022411801787350912
6	0x3fa0ad6b8cab6877	0.03257309047849415
7	0x3fc9b6abbc673d91	0.20088717173937856
8	0xbf868a01db14b635	-0.011005415438002245
9	0x3fc172e65177f4ff	0.1363189599796115
10	0xbfdbe73f0c90d46d	-0.435989153166992
11	0x3fbcaeb4f2c2fb8c	0.11204081465528598
12	0xbfc6b55a77a826ec	-0.17740946619624454
13	0xbfce406c067028e4	-0.23634100260125657
14	0x3fc85f81b755ce03	0.19041463329232053
15	0x3fc57f110d0e8f4d	0.16794026505987816
16	0x3fd975ba79805a79	0.3978105722939414
17	0x3fc97b966ac32879	0.19908409321789458
18	0xbfd1a3298fb358e1	-0.2755836394620826
19	0x3fc8259d9a071998	0.1886479379738375
20	0x3f9e09f3d0856459	0.029334840395084025
21	0x3fc2a39f19a58323	0.1456183314540108
22	0xbfe7ba213bb5b21a	-0.7414709249692948
23	0xbfdf4f7c1d841d50	-0.489226368736543
24	0xbfa46ee89710353f	-0.03990866512331558
25	0xbfd2034704ec5bdd	-0.28145003777302496
26	0xbfd6e4129e7c59f7	-0.35767045476077847
27	0x3fd95467011c224f	0.395776511272321
28	0xbfd86ff122b1ba51	-0.381832393532851
29	0xbfc8391096f907bb	-0.1892414796039342
30	0xbfcc629d9f5bdd9f	-0.2217595127219569
31	0xbfa324350e436655	-0.037385614386675904
32	0x3fd999baf1e37660	0.40000795003820677
33	0x3fcb415f347f209b	0.2129324919062626
34	0x3fc58bded37b51d7	0.1683310063005041
35	0xbf7a8384bf6adb95	-0.006473082109258584
36	0x3f9e319a74def76c	0.029486096747624854
37	0xbfd0ca1858a3fa92	-0.26233490616133637
38	0x3fbbc43e54c4b966	0.10846318788091977
39	0x3fed461ebd03bd28	0.9148095790568833
40	0xbfc898d75d0a2a59	-0.19216434519724393
41	0x3f7c48f012289f3e	0.006905496384696451
42	0xbf9ba0ee80d2dfd4	-0.026981093037392004
43	0xbfb7310adfaf339a	-0.09059207879108869
44	0x3fe1e48c9067e1d5	0.5591490574288921
45	0xbfd0b3cd77881875	-0.2609742800999649
46	0x3f8376ac27d6a951	0.009503693547988109
47	0x3fba9b56a12c86d9	0.10393277583036865
48	0x3fec442efd914b3e	0.8833231880656525
49	0xbfc81492d3659ff7	-0.18812785455816058
50	0xbfb18c09784cdf41	-0.06854304492014497
51	0xbfe6596546f42a18	-0.698412550527169
52	0x3f974b07ed964733	0.022747157932435157
53	0x3fbecd2edb02c158	0.12031834456388901
54	0x3fa2df56c01669c1	0.03686019034212818
55	0xbfd08dfc88b17216	-0.25866616581859725
56	0x3fd064e8a3ff298f	0.2561589814692064
57	0x3fc2da2b4a6dff4a	0.14728299268971973
58	0x3fc65f96d02358ab	0.17479214823715003
59	0xbfc120389728a55c	-0.13379580860900375
60	0xbfadc269d2610dd7	-0.05812388127426587
61	0xbfb994209c7a31b9	-0.09991649456259823
62	0x3fc1c70731829fdf	0.1388863555669095
63	0xbfca2693f72e944b	-0.20430230683737913
64	0x3fb5d14a8626056e	0.08522477889166222
65	0xbfdbe5fc211451cb	-0.4359121630707505
66	0xbfd4db8210fa7e99	-0.32589770944648816
67	0x3fb6b1b23a8a45a8	0.08864892892076759
68	0xbf80e6077ccd2af5	-0.008251245971810909
69	0xbfd00928be538914	-0.2505590304046035
70	0x3fcba6c1c52c0dad	0.2160265171770396
71	0x3fa2a131bf31fb6b	0.036386065091383944
72	0xbfca4797549d51f5	-0.20530978805130898
73	0x3fdec51fa8e6875f	0.48078147405805355
74	0x3fcb216a55b97e29	0.21195725618143627
75	0xbfc4e29db09a0375	-0.16316577075124497
76	0xbf99e0d058225e4a	-0.02527165925911693
77	0xbfe05a4ddd448b9e	-0.5110234567294929
78	0xbf8ab4ab07ff4187	-0.01303990953593438
79	0xbfb06c4ae14e13cd	-0.06415241242036913
80	0x3fdf000446727ff6	0.48437601928344465
81	0x3fb487d8eb7662f3	0.08019786594958216
82	0xbfc5922a5d7ca325	-0.16852311672962475
83	0x3fce16bb0238c0de	0.23506867989045238
84	0x3f7d34b61cf28b85	0.007130347613528158
85	0xbfcf219dbf9d6881	-0.24321338516421423
86	0x3fbdc29f8eb246f2	0.11625096544073779
87	0x3fc056e7b31487cf	0.12765213245535142
88	0xbfca182ee88fdef1	-0.20386301379743757
89	0x3fc024ecae0ef3c8	0.126126847257096
90	0x3fd3459532606644	0.3011219970663641
91	0x3fdec1172afa8783	0.4805353088105379
92	0x3fe4dbb3ef1511cb	0.6518191976143098
93	0x3fda4aac17435680	0.4108076312234985
94	0xbfd8ea34000c0664	-0.38929462437235984
95	0x3fd06e3814ac5148	0.2567272378812686
96	0xbfd679580f626274	-0.3511562490689706
97	0x3fc678b8aedc8adf	0.17555912531050574
98	0xbfb42af62a0558c3	-0.0787805416669896
99	0xbfbe8ddf0a5b5c0b	-0.11935228350499487
100	0xbfc280cb84879cc3	-0.14455551119974616
101	0xbfd15df39bd38093	-0.2713593503704114
102	0x3fa98fe826877617	0.04992604704214559
103	0xbfd72c9fb19dd268	-0.3620986208473256
104	0x3ff04431384bb1b7	1.0166485022592562
105	0x3fc32b8e32bb1501	0.14976670720185584
106	0x3fd612abec0f28a8	0.3448896222368014
107	0x3fb1f7b9e2ab6dd4	0.0701862505333602
108	0xbfc5e46eab4670e4	-0.1710337005905621
109	0x3fe577ff3075dab9	0.6708980509273125
110	0xbfc927021707be93	-0.19650293468975075
111	0xbfc59656b228c817	-0.1686504716795418
112	0xbfc7a082c807c15e	-0.18458590285400595
113	0x3fb974c4d4ed23e9	0.09943800161740025
114	0x3fb27c5e0001d355	0.07221019268201918
115	0xbfcd898a2626faef	-0.2307598768511165
116	0xbfc6688fc8c6a7de	-0.1750659685470159
117	0x3fc6d25b2b663e46	0.17829455966101387
118	0x3fccea03147091c6	0.225891480427107
119	0xbf886754e66ffa51	-0.011915839464561236
120	0xbfd4d7e014f9785c	-0.3256759838894874
121	0xbfe707a133550a43	-0.7196813585836214
122	0x3fcec0f90a510d3e	0.24026406291714325
123	0xbf9a8319fe75cb19	-0.0258907376823557
124	0xbfd5ca4c90cc4b34	-0.34047235622817884
125	0xbfc4ba54a38b49c6	-0.16193635926772582
126	0xbfdde8abc72576f0	-0.46732611129651414
127	0x3fc3e55958698f3e	0.1554366761876
128	0xbf69348f2ba7f12d	-0.0030768200206222813
129	0xbfaccbde6da08119	-0.0562428959676728
130	0x3fcaf0e9475bf293	0.21047702774366836
131	0x3f8df8ec3c51e076	0.014634938803496516
132	0x3fd90faa1ce260ca	0.391581085402788
133	0x3fea68772a7b516e	0.8252521352501796
134	0x3fc0fcbbb0942cad	0.13271280405056043
135	0x3fa12d03a14614bb	0.033546555935609366
136	0x3fa2708b1311aebc	0.0360148869302441
137	0x3fec658d44dac171	0.8873964638533335
138	0x3fdd3794a315d2b1	0.45651737142842835
139	0xbfc3b04d4d15a894	-0.15381780876061113
140	0xbfb776d9b615b543	-0.09165726371221176
141	0x3fecb9ca9e0a0f6b	0.8976796232895884
142	0xbfe153a64c8072ea	-0.5414611334013817
143	0xbfbfc007dde56517	-0.1240239063967191
144	0xbfc4f15a8aa223fc	-0.1636155297203742
145	0xbfc0cbb16812d5ba	-0.1312162168666598
146	0xbfceba80df59b299	-0.24006663232593864
147	0xbfe648ed6926ffc2	-0.6964022687679903
148	0x3fd15b0e3cce971a	0.2711825937097828
149	0x3fc25543b0700257	0.1432270633231549
150	0xbfcf60463bb454e8	-0.2451255599523059
151	0xbfe8328204306a22	-0.7561655122584094
152	0xbfcc2088f63b8b00	-0.2197428896243636
153	0x3f9aab396de32977	0.026043793994895616
154	0xbfbd1165a087703d	-0.11354670685926833
155	0x3fbddbf9eacd2fbc	0.11663782103022319
156	0x3fce88348eff79f6	0.23853165609666832
157	0xbfd0c22d95563d26	-0.26185168822935834
158	0x3fca405e4b8fe662	0.20508936585956677
159	0x3f9d3acabf86b23a	0.02854458612425701
160	0x3fb473caf3ba727d	0.0798918576278513
161	0xbfaf6aa6e7a75217	-0.06136056497385683
162	0xbfc65cbd5084b466	-0.1747051852375165
163	0x3fe6db690e7c3b55	0.7142834933200485
164	0x3fc2cbc2663816d0	0.14684324256102466
165	0xbfa2c35f4d8b88a2	-0.03664682218165295
166	0xbfb2dc59481173e8	-0.07367475518681454
167	0xbfd3e0ea590524bc	-0.3106027478539308
168	0x3fd276885f84e719	0.2884846623233997
169	0xbfc5c416d0e459a8	-0.1700466651897845
170	0xbfd521e0ee1350b6	-0.3301927876430101
171	0x3fd4a513a4e0adfb	0.32257548428853483
172	0xbfe0c6319ef660bc	-0.5241935829863205
173	0x3fb6efd0b9c9d094	0.08959679160926931
174	0xbfdc0860ab159117	-0.4380113287682134
175	0x3fd95c0f9cc01b27	0.39624395663888595
176	0xbfcb7c92c9552264	-0.21473917799655162
177	0x3f84e4975f2a1f6d	0.010201628295604082
178	0x3fc46045bc7b25a7	0.15918800070930425
179	0xbfe9532f7365a4df	-0.7914044622276853
180	0x3fc572e83d8cf785	0.16756918912318156
181	0xbfc23e4f0616becc	-0.1425265102129657
182	0xbfc2ac056f6d8fd8	-0.14587467137164256
183	0xbfd742807a0996a6	-0.36343395154686176
184	0x3fe38e9c75a413f3	0.6111585900949862
185	0xbfdb3656e92116b3	-0.4251916195538385
186	0xbfc33a68143a30d8	-0.15021992671643747
187	0x3fe15ad8e11e74a2	0.5423397442679241
188	0x3fbae293a5280d59	0.1050197866643904
189	0xbfdfdd46c3db3987	-0.49788064123722403
190	0x3fd30d173199304c	0.2976739868506726
191	0xbfc86bf07f896603	-0.19079405047777706
192	0xbfc810ec31149bba	-0.18801643749722335
193	0x3fe4f7639b4d76b8	0.6551988633397832
194	0x3fc38ba07ca46e21	0.15269857488679953
195	0xbfc1cf8be40d5139	-0.13914631495812005
196	0xbfccd401389d6f82	-0.2252198721351953
197	0xbfe774bc8172f882	-0.7330000427534886
198	0x3fc39964776230a3	0.15311866597437981
199	0xbf9fc60580cb5ad4	-0.031028829561217844
200	0xbfb3245e06c1524e	-0.07477367081566763
201	0x3faeffa277293d2a	0.060544087453872145
202	0x3fc7a68fcba8aa0d	0.1847705597331956
203	0x3fccacd0d1f93257	0.22402391674622166
204	0x3fe1685568cb1e73	0.5439860388514276
205	0xbf9c5227b5d24726	-0.0276571469044661
206	0xbfda496179d6acf5	-0.4107288064794397
207	0xbfc963dd15b29210	-0.1983600955910707
208	0xbfe971b4ffc9372b	-0.7951302524395251
209	0x3f9c337778846e5d	0.0275400798137596
210	0x3fd8c9701f3b3627	0.3872947983735195
211	0xbfce13086531bd8d	-0.23495583478095874
212	0xbfb59074a411b707	-0.08423546796413116
213	0x3faba8e67273f961	0.05402298113948479
214	0xbfe75bf422b1bea9	-0.7299748113273
215	0x3fe230ea6795b679	0.5684711478367738
216	0x3feab38df457dc8e	0.8344182751014999
217	0x3f97c6cba9f1aba8	0.023219282386360313
218	0xbfc822c03a36dfab	-0.1885605129480131
219	0xbfd79d5d3d442148	-0.368979749517639
220	0x3fda951e99465904	0.41535153358690047
221	0xbfb7245cca187fa7	-0.09039859708764074
222	0xbfc517e59a2bbccf	-0.16479177501557848
223	0x3fec3582ec9931da	0.88153215609196
224	0x3fc179c65859fbc0	0.13652877153432819
225	0xbfc18b8e20671857	-0.13707138616718126
226	0xbfdb72110937baa8	-0.4288370695129893
227	0xbfb1d5bfac273a7c	-0.06966779664001338
228	0xbfdbf61c9e339916	-0.43689647149439403
229	0x3fc12b8a82e60e29	0.13414126769576853
230	0x3f85271089ee68e0	0.010328416070298052
231	0x3fc362f27da08010	0.15145712980393045
232	0xbfcedb66320dd03d	-0.24107053226510003
233	0xbfbc7a1aad8943c3	-0.11123816239093202
234	0xbfc87127885cf303	-0.19095319898942628
235	0xbfd4c325a4d69d93	-0.3244108304738457
236	0x3fd4c26a9ba1c552	0.3243662376254025
237	0xbfbd5df3264fffd1	-0.1147148102318163
238	0x3fbdeff4c1554d46	0.1169426891331585
239	0x3fa295915a9511d7	0.036297361667070475
240	0xbff0c5e90603abdb	-1.048317931645889
241	0xbfc79a73844fd5f4	-0.18440097771205866
242	0x3febfc76d9db4c73	0.8745683913242729
243	0x3fc875bc8e72f703	0.19109303432008326
244	0x3fd5b26572e14042	0.33901344507922115
245	0x3fd2346087d53a75	0.28444684281286153
246	0x3fe2df1123597006	0.5897298517625138
247	0x3fc792640af6a318	0.1841549924404482
248	0xbfd74f426eca522a	-0.36421261615149325
249	0x3fd0ada1c10dfef2	0.26059764721865897
250	0xbfd983fdc01e3738	-0.3986811042931211
251	0x3fd334032d5a5e17	0.30004958561900835
252	0xbfd5968bed91db57	-0.33731363487406923
253	0xbf95eb87d31e7522	-0.021406290302924742
254	0xbfbc79b45a4e3b15	-0.11123206333853049
255	0xbfc98a3942d8c076	-0.19953075183866859

B1 f8 [128, 1]
0	0x3fac701172fe34f0	0.05554251221392714
1	0xbf93be39a13876ce	-0.019280338730928652
2	0x3f9fe9973d23e0b8	0.03116451559705588
3	0x3f8f626dd8227508	0.015324457319645393
4	0x3f6cde1ac4b098cf	0.003523876459001852
5	0xbfb953f5beb05b10	-0.09893737702837435
6	0x3f7e16588147bbc4	0.007345529291781842
7	0x3fb74169e312b889	0.09084188264634653
8	0xbfb1beafb0bdcba3	-0.06931589188552194
9	0x3f8fb1b20e3c1a79	0.015475646075640658
10	0x3f9554e20be3ffa5	0.020831615424867462
11	0x3fc76ebdf2fc4440	0.1830670772983769
12	0x3f8b3d255892fe00	0.013300220265931806
13	0x3fb8c57bfbfeddee	0.09676337148891154
14	0x3fb4012d88ccf7d7	0.07814297284946235
15	0xbf91886af2dc75f2	-0.017121954987592454
16	0xbf62e0f071ad22fd	-0.002304525010377366
17	0x3fac7c868a0b0665	0.05563755450340294
18	0x3f9c9f2658a597f6	0.027950858269285526
19	0x3fb6ad7165d9cddc	0.08858402954665884
20	0xbfa513c5d64893ef	-0.04116647949948759
21	0xbf80046617606896	-0.007820890034100619
22	0xbf775d9102145b6e	-0.0057044662837800585
23	0x3f6a914390810204	0.0032430953615689723
24	0xbfc319b86920360b	-0.14922242291542917
25	0x3f9552a9949758ad	0.02082314462116901
26	0xbfb1a10840c3f83b	-0.06886340695561526
27	0x3fbcbe81896cb8cd	0.11228189091773118
28	0xbfa2c701d165e029	-0.03667455369117107
29	0xbfb28cf6c684bc09	-0.07246343943255353
30	0x3f8fd4fd3514a05f	0.015542963201895242
31	0x3f949ba2c730bfda	0.020124953658694135
32	0xbf6f7638d78e59fe	-0.0038405523486730866
33	0xbf9fdb373c09a894	-0.031109679259693282
34	0x3fa931d41edc0231	0.049208287016885406
35	0x3fb0367f7ffa32c2	0.06333157419630722
36	0x3fbcaab5b8ffdbfc	0.11197982565487047
37	0x3fb73a9c9febc1da	0.09073809532470226
38	0xbf0f9737004838b6	-6.025444603007092e-05
39	0x3fb2d8395df455db	0.07361181777772378
40	0xbfa78690ecaebd42	-0.04594853295508951
41	0x3fc0a021faf49c2f	0.12988686326682017
42	0x3fb7b6c57d5cf230	0.09263262091276014
43	0x3f8e35c02954fc60	0.014750958691932492
44	0x3fb6d81a2088bc3a	0.08923495573320475
45	0x3fbf9e31eaff3659	0.12350761401395384
46	0xbfa9184320011cbd	-0.04901323095014607
47	0xbfb840890731cd8b	-0.09473473001144421
48	0x3fa8b0cd1c86d19b	0.04822388623452697
49	0x3fb1cff11bac7834	0.06957919049861588
50	0xbf8517eca687d25e	-0.010299538452252562
51	0xbf844984a3ba6786	-0.009905849691950196
52	0xbfaff142e35e73a1	-0.06238755250453854
53	0x3fc90aa74dba986d	0.19563761992793918
54	0x3fbe6d46e5bd08b2	0.11885493382308956
55	0x3f61920034ba5abb	0.0021448139212439632
56	0xbf8a8c9260932c34	-0.01296343190406022
57	0x3fa96c7d872b3527	0.04965584063539046
58	0xbfb3dbebb86eafbb	-0.07757447483771689
59	0x3fc199a8754260a7	0.1375017712168802
60	0xbfa474399b42d733	-0.03994922657277158
61	0xbfb4b168e9f797c2	-0.08083205902184346
62	0x3fb866aba726ee43	0.09531662779675636
63	0xbf8bc147abad208a	-0.013552246023792475
64	0x3f9cdc51c8ce515f	0.028184202080937634
65	0x3f97e5f3a7e84171	0.02333813392948642
66	0xbf903b6951f2b1a7	-0.01585163653059998
67	0x3fc08a96056a9380	0.12922930969684998
68	0x3f947c132fb573de	0.020004558360017792
69	0x3fac93f1d06f234a	0.055816227620715766
70	0x3fc3165f67eecb8b	0.14912025999873565
71	0xbfa52843c2c0063b	-0.04132282020874497
72	0xbf84161b3f654f4b	-0.009807789680656894
73	0xbfb3d3dd7dbf3185	-0.07745155639640273
74	0xbfa8418389705570	-0.0473748307487466
75	0xbf6a26bc3a11bb5e	-0.003192298536809287
76	0x3fb236a33ba58008	0.07114620405400285
77	0xbf6968c5991a0c1a	-0.0031017169320093465
78	0xbf6496d8a32f6b7c	-0.0025133353424115473
79	0xbf6d12e5586d60a5	-0.003549049320479796
80	0x3f7c62efa5f5e567	0.006930290342432733
81	0xbfb0d21c7be0a89d	-0.06570604347567373
82	0x3f20c235d54c0d0a	0.00012785823005154905
83	0xbf952773bb5d5063	-0.020658310232946408
84	0x3f97044b160fcd2c	0.022477315160313413
85	0xbfa3619821651358	-0.037853960110203644
86	0x3f95cfb283f13798	0.021300114920726892
87	0x3fa86933701d4f4b	0.04767761939606759
88	0xbfaef10678661e20	-0.06043262691224194
89	0x3f82d42c0eaaf3df	0.009193748662591204
90	0x3f93d94df2c1270d	0.019383638326224296
91	0xbfb07180b8d38f5b	-0.06423191559184487
92	0x3f7084ff81e04bad	0.0040330868487385265
93	0x3f903863f84509c2	0.015840112713030548
94	0x3fa25236088523f9	0.03578347066883931
95	0xbfb0112eea4e5790	-0.06276219578134445
96	0xbfa1ae5abd730221	-0.034533343912247945
97	0x3fa08e72a64b9738	0.03233679084750779
98	0xbf55d4374124c6c2	-0.0013323344797523816
99	0x3fc714bcca2d1b4e	0.18032035705456412
100	0x3faffd43e8fc4f98	0.06247913569509861
101	0xbf9dfe26e9237cb9	-0.029289825420047964
102	0x3faeb3feda908fc4	0.05996700685525938
103	0xbf9a6a2b3a8c0be1	-0.025795627067974784
104	0x3fb2f01e8641f2d9	0.07397642877362944
105	0x3fb4ccc1f33de950	0.08124935329934613
106	0x3f9f4146db4e24fb	0.030522448668794926
107	0x3fc26dd80a06bc51	0.14397716989103285
108	0x3fb692ab6479b0db	0.08817549899112313
109	0x3fbd917b4ca96863	0.11550112363457425
110	0xbf5e4a4f6f9bdb87	-0.0018487716428674265
111	0x3fa34b912ec51820	0.03768590637132285
112	0x3fa247c66112e238	0.03570384917242503
113	0xbfbe7348baee46f9	-0.11894659579982293
114	0x3f8b7c60259282f4	0.013420821329704215
115	0x3fac2ccd8dd62635	0.05502931934740866
116	0xbf951af76d1c1f7d	-0.0206106815667506
117	0x3fa4ab3220ffb5ab	0.040368620422536715
118	0x3fb3471f13208646	0.07530397622078863
119	0x3fb1fed30d7a1ab6	0.07029456213977422
120	0x3fb2a23c5d9ceab8	0.07278802190277645
121	0xbf866eaa2f086a9b	-0.01095326381714772
122	0xbfa279d252d412bd	-0.03608567486847878
123	0x3fb77db63306e7bd	0.09176195855880472
124	0xbfc0ebbc6ac58eab	-0.13219409192526163
125	0xbfb458cae3b04388	-0.07947986658861173
126	0x3faa4d88ab2f4577	0.05137278642326753
127	0xbf8a70535cdc062b	-0.01290955664763079

B2 f8 [64, 1]
0	0xbfb5834f307a4fef	-0.08403487142123799
1	0x3fba844464438c29	0.10358073661659319
2	0x3f97fe9496cd2648	0.02343208475512018
3	0x3f04eeedba30adc3	3.9927129613505644e-05
4	0x3fc0b835c96f23b7	0.13062164626742653
5	0x3fb39daebe976907	0.07662479546653254
6	0x3f79f53d6e8d59ad	0.006337394683973247
7	0x3fa5dc4b28794f33	0.042696331682832066
8	0x3fa88414519cb022	0.04788268562546728
9	0x3f9fb2196f25a93f	0.030952832611924604
10	0x3fa6deda37877d7a	0.0446689789566745
11	0x3f6e5eb311e8a1d3	0.0037072656116558882
12	0xbf86b6e51226278e	-0.011091031662335184
13	0x3fc27d79ef38b123	0.14445423298583035
14	0x3f23ff99595a4cd3	0.00015257594047977125
15	0xbf66bb3293fc5e22	-0.002774809632579937
16	0x3fa0b8966f9ea71f	0.032658291936355825
17	0xbf88d4db23762862	-0.012124740619374023
18	0x3fa4ff2fce056704	0.041009420298634
19	0x3fa2b6652739dd79	0.03654781440576022
20	0x3f67c6381d79d85c	0.002902135467418394
21	0xbf362535df6038bb	-0.0003379112744149694
22	0x3fbce6570d176628	0.11288971013655014
23	0x3fb3c0c4f86c93c3	0.07716017785112599
24	0x3f7263375363f216	0.0044891511117808505
25	0x3faa5963a3f49f69	0.05146323563013661
26	0x3fac4e53e607f23f	0.055285093145333246
27	0xbf5421780a63e0a5	-0.0012286827346184384
28	0x3fac62a80ede2f69	0.05544018918507627
29	0x3f62a7b48784dc6d	0.002277233692577199
30	0x3fb7c075390f50fe	0.09278042452871557
31	0xbf70032151f5a55a	-0.0039092351501975545
32	0xbf6f620002aeeaa4	-0.0038309097485272493
33	0x3f973b74eb8bcb00	0.022687746883955917
34	0x3fa2d36464973a19	0.036769044188634754
35	0x3fa0f69f3426093e	0.033131575694840695
36	0x3faf04dd0dafbfd8	0.060583980484693434
37	0xbf8d1af5bcd6eaa5	-0.014211578202652684
38	0xbf6c918e968e9de9	-0.0034873757289977003
39	0xbf93db972f8bc791	-0.0193923590440544
40	0x3faf5eefcd5a8e2a	0.06127118474730893
41	0xbf92cf23b58e4710	-0.018368299442562963
42	0x3f9c680d93579831	0.027740680807163357
43	0x3fb004faa76ff488	0.062575975301984
44	0xbfa717d981d785a6	-0.04510383329376148
45	0x3fb1db4d4ac2fb7b	0.06975253176913825
46	0x3f7bae2ab67a2e69	0.006757895323640997
47	0x3fa494b7ca6f1d2a	0.04019712778204572
48	0x3fb22a1290add5dd	0.07095447570994602
49	0x3fa6f9ba539a4520	0.044874022202870956
50	0x3f2163ad4716684a	0.0001326703091251733
51	0x3fbff95242f2efaf	0.12489809164520581
52	0x3faac02a3fa3a0d4	0.052247352856115065
53	0x3fa7d91b0c7f9683	0.046578259730989856
54	0xbfa84128a7649686	-0.04737212222452762
55	0x3fab8a7e0d529807	0.05379098808889187
56	0xbf99a0eb054dfcb7	-0.025027916144151088
57	0x3facae61ac7343db	0.05601792554956094
58	0x3fa1dc10bcf53445	0.03488209063161966
59	0xbf82876a064cf09f	-0.009047344510343001
60	0x3f91fd87cbac97db	0.017568704420362607
61	0x3fb5eeacc940832d	0.08567314065340943
62	0x3fa1d90136d23fa8	0.034858739797641036
63	0x3fa884bdddbe15a8	0.047887738531282864

B3 f8 [10, 1]
0	0xbfc3876f87746a3e	-0.1525706683540466
1	0x3fa541b823982a3a	0.04151702341558346
2	0x3f94869f41671976	0.020044792525163634
3	0xbfac1f670aff2c6f	-0.054927082149867405
4	0xbf95a6e0c5890224	-0.021144401604262467
5	0x3fbdd12b7f5a38bb	0.11647292956533566
6	0x3fab90381e76e30e	0.05383468028907688
7	0x3faa2811e4d1c70d	0.05108695905881975
8	0xbf9a9bc1e8e42486	-0.025984792556333257
9	0xbf9d02648c82d6a3	-0.028329440189472376
